…
2022-11-17 19:19:59.455270: I tensorflow/compiler/xla/service/service.cc:176]   StreamExecutor device (0): Host, Default Version
2022-11-17 19:19:59.458281: I tensorflow/core/common_runtime/gpu/gpu_device.cc:1102] Device interconnect StreamExecutor with strength 1 edge matrix:
2022-11-17 19:19:59.460175: I tensorflow/core/common_runtime/gpu/gpu_device.cc:1108]      
(98,)
Model: "MLP"
_________________________________________________________________
Layer (type)                 Output Shape              Param #   
=================================================================
dense (Dense)                (None, 64)                6336      
_________________________________________________________________
dense_1 (Dense)              (None, 32)                2080      
_________________________________________________________________
dense_2 (Dense)              (None, 16)                528       
_________________________________________________________________
dense_3 (Dense)              (None, 8)                 136       
_________________________________________________________________
dense_4 (Dense)              (None, 4)                 36        
_________________________________________________________________
dense_5 (Dense)              (None, 2)                 10        
=================================================================
Total params: 9,126
Trainable params: 9,126
Non-trainable params: 0
_________________________________________________________________
Fit model on training data
Epoch 1/500
248/248 - 1s - loss: 0.6733 - categorical_accuracy: 0.7515
(98,)
Model: "MLP"
_________________________________________________________________
Layer (type)                 Output Shape              Param #   
=================================================================
dense (Dense)                (None, 64)                6336      
_________________________________________________________________
dense_1 (Dense)              (None, 32)                2080      
_________________________________________________________________
dense_2 (Dense)              (None, 16)                528       
_________________________________________________________________
dense_3 (Dense)              (None, 8)                 136       
_________________________________________________________________
dense_4 (Dense)              (None, 4)                 36        
_________________________________________________________________
dense_5 (Dense)              (None, 2)                 10        
=================================================================
Total params: 9,126
Trainable params: 9,126
Non-trainable params: 0
_________________________________________________________________
Fit model on training data
Epoch 1/500
248/248 - 1s - loss: 0.6451 - categorical_accuracy: 0.7515
(98,)
Model: "MLP"
_________________________________________________________________
Layer (type)                 Output Shape              Param #   
=================================================================
dense (Dense)                (None, 64)                6336      
_________________________________________________________________
dense_1 (Dense)              (None, 32)                2080      
_________________________________________________________________
dense_2 (Dense)              (None, 16)                528       
_________________________________________________________________
dense_3 (Dense)              (None, 8)                 136       
_________________________________________________________________
dense_4 (Dense)              (None, 4)                 36        
_________________________________________________________________
dense_5 (Dense)              (None, 2)                 10        
=================================================================
Total params: 9,126
Trainable params: 9,126
Non-trainable params: 0
_________________________________________________________________
Fit model on training data
Epoch 1/500
248/248 - 1s - loss: 0.4557 - categorical_accuracy: 0.7527
(98,)
Model: "MLP"
_________________________________________________________________
Layer (type)                 Output Shape              Param #   
=================================================================
dense (Dense)                (None, 64)                6336      
_________________________________________________________________
dense_1 (Dense)              (None, 32)                2080      
_________________________________________________________________
dense_2 (Dense)              (None, 16)                528       
_________________________________________________________________
dense_3 (Dense)              (None, 8)                 136       
_________________________________________________________________
dense_4 (Dense)              (None, 4)                 36        
_________________________________________________________________
dense_5 (Dense)              (None, 2)                 10        
=================================================================
Total params: 9,126
Trainable params: 9,126
Non-trainable params: 0
_________________________________________________________________
Fit model on training data
Epoch 1/500
248/248 - 1s - loss: 0.4234 - categorical_accuracy: 0.7824
(98,)
Model: "MLP"
_________________________________________________________________
Layer (type)                 Output Shape              Param #   
=================================================================
dense (Dense)                (None, 64)                6336      
_________________________________________________________________
dense_1 (Dense)              (None, 32)                2080      
_________________________________________________________________
dense_2 (Dense)              (None, 16)                528       
_________________________________________________________________
dense_3 (Dense)              (None, 8)                 136       
_________________________________________________________________
dense_4 (Dense)              (None, 4)                 36        
_________________________________________________________________
dense_5 (Dense)              (None, 2)                 10        
=================================================================
Total params: 9,126
Trainable params: 9,126
Non-trainable params: 0
_________________________________________________________________
Fit model on training data
Epoch 1/500
248/248 - 1s - loss: 0.5976 - categorical_accuracy: 0.7515
(98,)
Model: "MLP"
_________________________________________________________________
Layer (type)                 Output Shape              Param #   
=================================================================
dense (Dense)                (None, 64)                6336      
_________________________________________________________________
dense_1 (Dense)              (None, 32)                2080      
_________________________________________________________________
dense_2 (Dense)              (None, 16)                528       
_________________________________________________________________
dense_3 (Dense)              (None, 8)                 136       
_________________________________________________________________
dense_4 (Dense)              (None, 4)                 36        
_________________________________________________________________
dense_5 (Dense)              (None, 2)                 10        
=================================================================
Total params: 9,126
Trainable params: 9,126
Non-trainable params: 0
_________________________________________________________________
Fit model on training data
Epoch 1/500
495/495 - 2s - loss: 0.4250 - categorical_accuracy: 0.7867
Epoch 2/500
248/248 - 1s - loss: 0.6626 - categorical_accuracy: 0.7515
Epoch 2/500
248/248 - 1s - loss: 0.5408 - categorical_accuracy: 0.7515
(98,)
Model: "MLP"
_________________________________________________________________
Layer (type)                 Output Shape              Param #   
=================================================================
dense (Dense)                (None, 64)                6336      
_________________________________________________________________
dense_1 (Dense)              (None, 32)                2080      
_________________________________________________________________
dense_2 (Dense)              (None, 16)                528       
_________________________________________________________________
dense_3 (Dense)              (None, 8)                 136       
_________________________________________________________________
dense_4 (Dense)              (None, 4)                 36        
_________________________________________________________________
dense_5 (Dense)              (None, 2)                 10        
=================================================================
Total params: 9,126
Trainable params: 9,126
Non-trainable params: 0
_________________________________________________________________
Fit model on training data
Epoch 1/500
495/495 - 2s - loss: 0.6687 - categorical_accuracy: 0.7515
(98,)
Model: "MLP"
_________________________________________________________________
Layer (type)                 Output Shape              Param #   
=================================================================
dense (Dense)                (None, 64)                6336      
_________________________________________________________________
dense_1 (Dense)              (None, 32)                2080      
_________________________________________________________________
dense_2 (Dense)              (None, 16)                528       
_________________________________________________________________
dense_3 (Dense)              (None, 8)                 136       
_________________________________________________________________
dense_4 (Dense)              (None, 4)                 36        
_________________________________________________________________
dense_5 (Dense)              (None, 2)                 10        
=================================================================
Total params: 9,126
Trainable params: 9,126
Non-trainable params: 0
_________________________________________________________________
Fit model on training data
Epoch 1/500
495/495 - 2s - loss: 0.6010 - categorical_accuracy: 0.7515
Epoch 2/500
248/248 - 1s - loss: 0.4416 - categorical_accuracy: 0.7515
(98,)
Model: "MLP"
_________________________________________________________________
Layer (type)                 Output Shape              Param #   
=================================================================
dense (Dense)                (None, 64)                6336      
_________________________________________________________________
dense_1 (Dense)              (None, 32)                2080      
_________________________________________________________________
dense_2 (Dense)              (None, 16)                528       
_________________________________________________________________
dense_3 (Dense)              (None, 8)                 136       
_________________________________________________________________
dense_4 (Dense)              (None, 4)                 36        
_________________________________________________________________
dense_5 (Dense)              (None, 2)                 10        
=================================================================
Total params: 9,126
Trainable params: 9,126
Non-trainable params: 0
_________________________________________________________________
Fit model on training data
Epoch 1/500
495/495 - 2s - loss: 0.4037 - categorical_accuracy: 0.8023
Epoch 2/500
248/248 - 1s - loss: 0.3800 - categorical_accuracy: 0.8303
Epoch 3/500
248/248 - 1s - loss: 0.4553 - categorical_accuracy: 0.7515
(98,)
Model: "MLP"
_________________________________________________________________
Layer (type)                 Output Shape              Param #   
=================================================================
dense (Dense)                (None, 64)                6336      
_________________________________________________________________
dense_1 (Dense)              (None, 32)                2080      
_________________________________________________________________
dense_2 (Dense)              (None, 16)                528       
_________________________________________________________________
dense_3 (Dense)              (None, 8)                 136       
_________________________________________________________________
dense_4 (Dense)              (None, 4)                 36        
_________________________________________________________________
dense_5 (Dense)              (None, 2)                 10        
=================================================================
Total params: 9,126
Trainable params: 9,126
Non-trainable params: 0
_________________________________________________________________
Fit model on training data
Epoch 1/500
495/495 - 3s - loss: 0.5290 - categorical_accuracy: 0.7515
Epoch 2/500
248/248 - 2s - loss: 0.3685 - categorical_accuracy: 0.8346
Epoch 3/500
248/248 - 1s - loss: 0.6479 - categorical_accuracy: 0.7515
(98,)
Model: "MLP"
_________________________________________________________________
Layer (type)                 Output Shape              Param #   
=================================================================
dense (Dense)                (None, 64)                6336      
_________________________________________________________________
dense_1 (Dense)              (None, 32)                2080      
_________________________________________________________________
dense_2 (Dense)              (None, 16)                528       
_________________________________________________________________
dense_3 (Dense)              (None, 8)                 136       
_________________________________________________________________
dense_4 (Dense)              (None, 4)                 36        
_________________________________________________________________
dense_5 (Dense)              (None, 2)                 10        
=================================================================
Total params: 9,126
Trainable params: 9,126
Non-trainable params: 0
_________________________________________________________________
Fit model on training data
Epoch 1/500
990/990 - 4s - loss: 0.4061 - categorical_accuracy: 0.8020
Epoch 3/500
248/248 - 2s - loss: 0.4049 - categorical_accuracy: 0.7515
(98,)
Model: "MLP"
_________________________________________________________________
Layer (type)                 Output Shape              Param #   
=================================================================
dense (Dense)                (None, 64)                6336      
_________________________________________________________________
dense_1 (Dense)              (None, 32)                2080      
_________________________________________________________________
dense_2 (Dense)              (None, 16)                528       
_________________________________________________________________
dense_3 (Dense)              (None, 8)                 136       
_________________________________________________________________
dense_4 (Dense)              (None, 4)                 36        
_________________________________________________________________
dense_5 (Dense)              (None, 2)                 10        
=================================================================
Total params: 9,126
Trainable params: 9,126
Non-trainable params: 0
_________________________________________________________________
Fit model on training data
Epoch 1/500
990/990 - 4s - loss: 0.4782 - categorical_accuracy: 0.7515
Epoch 3/500
248/248 - 1s - loss: 0.3664 - categorical_accuracy: 0.8345
(98,)
Model: "MLP"
_________________________________________________________________
Layer (type)                 Output Shape              Param #   
=================================================================
dense (Dense)                (None, 64)                6336      
_________________________________________________________________
dense_1 (Dense)              (None, 32)                2080      
_________________________________________________________________
dense_2 (Dense)              (None, 16)                528       
_________________________________________________________________
dense_3 (Dense)              (None, 8)                 136       
_________________________________________________________________
dense_4 (Dense)              (None, 4)                 36        
_________________________________________________________________
dense_5 (Dense)              (None, 2)                 10        
=================================================================
Total params: 9,126
Trainable params: 9,126
Non-trainable params: 0
_________________________________________________________________
Fit model on training data
Epoch 1/500
990/990 - 4s - loss: 0.3902 - categorical_accuracy: 0.8142
Epoch 2/500
495/495 - 2s - loss: 0.6422 - categorical_accuracy: 0.7515
Epoch 3/500
248/248 - 1s - loss: 0.3543 - categorical_accuracy: 0.8371
Epoch 4/500
248/248 - 1s - loss: 0.6280 - categorical_accuracy: 0.7515
Epoch 2/500
495/495 - 2s - loss: 0.3700 - categorical_accuracy: 0.8330
Epoch 4/500
248/248 - 2s - loss: 0.4224 - categorical_accuracy: 0.7515
Epoch 4/500
248/248 - 1s - loss: 0.3574 - categorical_accuracy: 0.8386
Epoch 2/500
495/495 - 2s - loss: 0.3594 - categorical_accuracy: 0.8349
(98,)
Model: "MLP"
_________________________________________________________________
Layer (type)                 Output Shape              Param #   
=================================================================
dense (Dense)                (None, 64)                6336      
_________________________________________________________________
dense_1 (Dense)              (None, 32)                2080      
_________________________________________________________________
dense_2 (Dense)              (None, 16)                528       
_________________________________________________________________
dense_3 (Dense)              (None, 8)                 136       
_________________________________________________________________
dense_4 (Dense)              (None, 4)                 36        
_________________________________________________________________
dense_5 (Dense)              (None, 2)                 10        
=================================================================
Total params: 9,126
Trainable params: 9,126
Non-trainable params: 0
_________________________________________________________________
Fit model on training data
Epoch 1/500
990/990 - 5s - loss: 0.6585 - categorical_accuracy: 0.7515
Epoch 4/500
248/248 - 1s - loss: 0.3443 - categorical_accuracy: 0.8428
Epoch 2/500
495/495 - 3s - loss: 0.4519 - categorical_accuracy: 0.7515
Epoch 5/500
248/248 - 1s - loss: 0.6066 - categorical_accuracy: 0.7515
Epoch 5/500
248/248 - 1s - loss: 0.3508 - categorical_accuracy: 0.8408
(98,)
Model: "MLP"
_________________________________________________________________
Layer (type)                 Output Shape              Param #   
=================================================================
dense (Dense)                (None, 64)                6336      
_________________________________________________________________
dense_1 (Dense)              (None, 32)                2080      
_________________________________________________________________
dense_2 (Dense)              (None, 16)                528       
_________________________________________________________________
dense_3 (Dense)              (None, 8)                 136       
_________________________________________________________________
dense_4 (Dense)              (None, 4)                 36        
_________________________________________________________________
dense_5 (Dense)              (None, 2)                 10        
=================================================================
Total params: 9,126
Trainable params: 9,126
Non-trainable params: 0
_________________________________________________________________
Fit model on training data
Epoch 1/500
990/990 - 5s - loss: 0.5397 - categorical_accuracy: 0.7515
Epoch 2/500
495/495 - 3s - loss: 0.4069 - categorical_accuracy: 0.7515
Epoch 4/500
248/248 - 2s - loss: 0.3924 - categorical_accuracy: 0.7703
…
Epoch 6/500
248/248 - 1s - loss: 0.3443 - categorical_accuracy: 0.8432
Epoch 2/500
990/990 - 3s - loss: 0.3609 - categorical_accuracy: 0.8349
Epoch 3/500
495/495 - 2s - loss: 0.3445 - categorical_accuracy: 0.8392
Epoch 2/500
990/990 - 3s - loss: 0.3929 - categorical_accuracy: 0.8082
Epoch 6/500
248/248 - 1s - loss: 0.5855 - categorical_accuracy: 0.7515
(98,)
Model: "MLP"
_________________________________________________________________
Layer (type)                 Output Shape              Param #   
=================================================================
dense (Dense)                (None, 64)                6336      
_________________________________________________________________
dense_1 (Dense)              (None, 32)                2080      
_________________________________________________________________
dense_2 (Dense)              (None, 16)                528       
_________________________________________________________________
dense_3 (Dense)              (None, 8)                 136       
_________________________________________________________________
dense_4 (Dense)              (None, 4)                 36        
_________________________________________________________________
dense_5 (Dense)              (None, 2)                 10        
=================================================================
Total params: 9,126
Trainable params: 9,126
Non-trainable params: 0
_________________________________________________________________
Fit model on training data
Epoch 1/500
1979/1979 - 7s - loss: 0.4472 - categorical_accuracy: 0.7672
Epoch 5/500
248/248 - 1s - loss: 0.3856 - categorical_accuracy: 0.8287
Epoch 3/500
495/495 - 2s - loss: 0.3895 - categorical_accuracy: 0.8183
…
2022-11-17 19:55:40.432153: I tensorflow/compiler/xla/service/service.cc:176]   StreamExecutor device (0): Host, Default Version
2022-11-17 19:55:40.436705: I tensorflow/core/common_runtime/gpu/gpu_device.cc:1102] Device interconnect StreamExecutor with strength 1 edge matrix:
2022-11-17 19:55:40.436758: I tensorflow/core/common_runtime/gpu/gpu_device.cc:1108]      
(57,)
Model: "MLP"
_________________________________________________________________
Layer (type)                 Output Shape              Param #   
=================================================================
dense (Dense)                (None, 64)                3712      
_________________________________________________________________
dense_1 (Dense)              (None, 32)                2080      
_________________________________________________________________
dense_2 (Dense)              (None, 16)                528       
_________________________________________________________________
dense_3 (Dense)              (None, 8)                 136       
_________________________________________________________________
dense_4 (Dense)              (None, 4)                 36        
_________________________________________________________________
dense_5 (Dense)              (None, 2)                 10        
=================================================================
Total params: 6,502
Trainable params: 6,502
Non-trainable params: 0
_________________________________________________________________
Fit model on training data
Epoch 1/500
167/167 - 1s - loss: 0.3940 - categorical_accuracy: 0.8750
(57,)
Model: "MLP"
_________________________________________________________________
Layer (type)                 Output Shape              Param #   
=================================================================
dense (Dense)                (None, 64)                3712      
_________________________________________________________________
dense_1 (Dense)              (None, 32)                2080      
_________________________________________________________________
dense_2 (Dense)              (None, 16)                528       
_________________________________________________________________
dense_3 (Dense)              (None, 8)                 136       
_________________________________________________________________
dense_4 (Dense)              (None, 4)                 36        
_________________________________________________________________
dense_5 (Dense)              (None, 2)                 10        
=================================================================
Total params: 6,502
Trainable params: 6,502
Non-trainable params: 0
_________________________________________________________________
Fit model on training data
Epoch 1/500
167/167 - 1s - loss: 0.5586 - categorical_accuracy: 0.8750
(57,)
Model: "MLP"
_________________________________________________________________
Layer (type)                 Output Shape              Param #   
=================================================================
dense (Dense)                (None, 64)                3712      
_________________________________________________________________
dense_1 (Dense)              (None, 32)                2080      
_________________________________________________________________
dense_2 (Dense)              (None, 16)                528       
_________________________________________________________________
dense_3 (Dense)              (None, 8)                 136       
_________________________________________________________________
dense_4 (Dense)              (None, 4)                 36        
_________________________________________________________________
dense_5 (Dense)              (None, 2)                 10        
=================================================================
Total params: 6,502
Trainable params: 6,502
Non-trainable params: 0
_________________________________________________________________
Fit model on training data
Epoch 1/500
334/334 - 1s - loss: 0.4662 - categorical_accuracy: 0.8750
Epoch 2/500
167/167 - 0s - loss: 0.3656 - categorical_accuracy: 0.8750
(57,)
Model: "MLP"
_________________________________________________________________
Layer (type)                 Output Shape              Param #   
=================================================================
dense (Dense)                (None, 64)                3712      
_________________________________________________________________
dense_1 (Dense)              (None, 32)                2080      
_________________________________________________________________
dense_2 (Dense)              (None, 16)                528       
_________________________________________________________________
dense_3 (Dense)              (None, 8)                 136       
_________________________________________________________________
dense_4 (Dense)              (None, 4)                 36        
_________________________________________________________________
dense_5 (Dense)              (None, 2)                 10        
=================================================================
Total params: 6,502
Trainable params: 6,502
Non-trainable params: 0
_________________________________________________________________
Fit model on training data
Epoch 1/500
167/167 - 1s - loss: 0.6238 - categorical_accuracy: 0.8750
(57,)
Model: "MLP"
_________________________________________________________________
Layer (type)                 Output Shape              Param #   
=================================================================
dense (Dense)                (None, 64)                3712      
_________________________________________________________________
dense_1 (Dense)              (None, 32)                2080      
_________________________________________________________________
dense_2 (Dense)              (None, 16)                528       
_________________________________________________________________
dense_3 (Dense)              (None, 8)                 136       
_________________________________________________________________
dense_4 (Dense)              (None, 4)                 36        
_________________________________________________________________
dense_5 (Dense)              (None, 2)                 10        
=================================================================
Total params: 6,502
Trainable params: 6,502
Non-trainable params: 0
_________________________________________________________________
Fit model on training data
Epoch 1/500
334/334 - 1s - loss: 0.6535 - categorical_accuracy: 0.8750
(57,)
Model: "MLP"
_________________________________________________________________
Layer (type)                 Output Shape              Param #   
=================================================================
dense (Dense)                (None, 64)                3712      
_________________________________________________________________
dense_1 (Dense)              (None, 32)                2080      
_________________________________________________________________
dense_2 (Dense)              (None, 16)                528       
_________________________________________________________________
dense_3 (Dense)              (None, 8)                 136       
_________________________________________________________________
dense_4 (Dense)              (None, 4)                 36        
_________________________________________________________________
dense_5 (Dense)              (None, 2)                 10        
=================================================================
Total params: 6,502
Trainable params: 6,502
Non-trainable params: 0
_________________________________________________________________
Fit model on training data
Epoch 1/500
334/334 - 1s - loss: 0.3279 - categorical_accuracy: 0.8750
Epoch 2/500
334/334 - 1s - loss: 0.3374 - categorical_accuracy: 0.8750
Epoch 3/500
167/167 - 1s - loss: 0.3400 - categorical_accuracy: 0.8750
Epoch 2/500
167/167 - 1s - loss: 0.3020 - categorical_accuracy: 0.8750
Epoch 2/500
167/167 - 1s - loss: 0.4805 - categorical_accuracy: 0.8750
(57,)
Model: "MLP"
_________________________________________________________________
Layer (type)                 Output Shape              Param #   
=================================================================
dense (Dense)                (None, 64)                3712      
_________________________________________________________________
dense_1 (Dense)              (None, 32)                2080      
_________________________________________________________________
dense_2 (Dense)              (None, 16)                528       
_________________________________________________________________
dense_3 (Dense)              (None, 8)                 136       
_________________________________________________________________
dense_4 (Dense)              (None, 4)                 36        
_________________________________________________________________
dense_5 (Dense)              (None, 2)                 10        
=================================================================
Total params: 6,502
Trainable params: 6,502
Non-trainable params: 0
_________________________________________________________________
Fit model on training data
Epoch 1/500
667/667 - 2s - loss: 0.4697 - categorical_accuracy: 0.8750
(57,)
Model: "MLP"
_________________________________________________________________
Layer (type)                 Output Shape              Param #   
=================================================================
dense (Dense)                (None, 64)                3712      
_________________________________________________________________
dense_1 (Dense)              (None, 32)                2080      
_________________________________________________________________
dense_2 (Dense)              (None, 16)                528       
_________________________________________________________________
dense_3 (Dense)              (None, 8)                 136       
_________________________________________________________________
dense_4 (Dense)              (None, 4)                 36        
_________________________________________________________________
dense_5 (Dense)              (None, 2)                 10        
=================================================================
Total params: 6,502
Trainable params: 6,502
Non-trainable params: 0
_________________________________________________________________
Fit model on training data
Epoch 1/500
667/667 - 2s - loss: 0.6378 - categorical_accuracy: 0.8750
Epoch 4/500
167/167 - 1s - loss: 0.3246 - categorical_accuracy: 0.8750
Epoch 3/500
167/167 - 0s - loss: 0.3750 - categorical_accuracy: 0.8750
(57,)
Model: "MLP"
_________________________________________________________________
Layer (type)                 Output Shape              Param #   
=================================================================
dense (Dense)                (None, 64)                3712      
_________________________________________________________________
dense_1 (Dense)              (None, 32)                2080      
_________________________________________________________________
dense_2 (Dense)              (None, 16)                528       
_________________________________________________________________
dense_3 (Dense)              (None, 8)                 136       
_________________________________________________________________
dense_4 (Dense)              (None, 4)                 36        
_________________________________________________________________
dense_5 (Dense)              (None, 2)                 10        
=================================================================
Total params: 6,502
Trainable params: 6,502
Non-trainable params: 0
_________________________________________________________________
Fit model on training data
Epoch 1/500
667/667 - 2s - loss: 0.3295 - categorical_accuracy: 0.8750
Epoch 3/500
167/167 - 1s - loss: 0.2853 - categorical_accuracy: 0.8750
Epoch 3/500
334/334 - 1s - loss: 0.3169 - categorical_accuracy: 0.8750
(57,)
Model: "MLP"
_________________________________________________________________
Layer (type)                 Output Shape              Param #   
=================================================================
dense (Dense)                (None, 64)                3712      
_________________________________________________________________
dense_1 (Dense)              (None, 32)                2080      
_________________________________________________________________
dense_2 (Dense)              (None, 16)                528       
_________________________________________________________________
dense_3 (Dense)              (None, 8)                 136       
_________________________________________________________________
dense_4 (Dense)              (None, 4)                 36        
_________________________________________________________________
dense_5 (Dense)              (None, 2)                 10        
=================================================================
Total params: 6,502
Trainable params: 6,502
Non-trainable params: 0
_________________________________________________________________
Fit model on training data
Epoch 1/500
667/667 - 3s - loss: 0.4089 - categorical_accuracy: 0.8750
Epoch 4/500
167/167 - 0s - loss: 0.3514 - categorical_accuracy: 0.8750
Epoch 5/500
167/167 - 1s - loss: 0.3133 - categorical_accuracy: 0.8750
…
Epoch 4/500
167/167 - 0s - loss: 0.2658 - categorical_accuracy: 0.8750
Epoch 6/500
167/167 - 0s - loss: 0.3050 - categorical_accuracy: 0.8750
Epoch 4/500
334/334 - 1s - loss: 0.3045 - categorical_accuracy: 0.8750
Epoch 2/500
334/334 - 2s - loss: 0.6167 - categorical_accuracy: 0.8750
Epoch 5/500
167/167 - 1s - loss: 0.3425 - categorical_accuracy: 0.8750
(57,)
Model: "MLP"
_________________________________________________________________
Layer (type)                 Output Shape              Param #   
=================================================================
dense (Dense)                (None, 64)                3712      
_________________________________________________________________
dense_1 (Dense)              (None, 32)                2080      
_________________________________________________________________
dense_2 (Dense)              (None, 16)                528       
_________________________________________________________________
dense_3 (Dense)              (None, 8)                 136       
_________________________________________________________________
dense_4 (Dense)              (None, 4)                 36        
_________________________________________________________________
dense_5 (Dense)              (None, 2)                 10        
=================================================================
Total params: 6,502
Trainable params: 6,502
Non-trainable params: 0
_________________________________________________________________
Fit model on training data
Epoch 1/500
167/167 - 0s - loss: 0.3567 - categorical_accuracy: 0.8750
(57,)
Model: "MLP"
_________________________________________________________________
Layer (type)                 Output Shape              Param #   
=================================================================
dense (Dense)                (None, 64)                3712      
_________________________________________________________________
dense_1 (Dense)              (None, 32)                2080      
_________________________________________________________________
dense_2 (Dense)              (None, 16)                528       
_________________________________________________________________
dense_3 (Dense)              (None, 8)                 136       
_________________________________________________________________
dense_4 (Dense)              (None, 4)                 36        
_________________________________________________________________
dense_5 (Dense)              (None, 2)                 10        
=================================================================
Total params: 6,502
Trainable params: 6,502
Non-trainable params: 0
_________________________________________________________________
Fit model on training data
Epoch 1/500
167/167 - 1s - loss: 0.6610 - categorical_accuracy: 0.8750
Epoch 5/500
167/167 - 1s - loss: 0.2417 - categorical_accuracy: 0.8882
Epoch 7/500
167/167 - 0s - loss: 0.2988 - categorical_accuracy: 0.8750
…
Epoch 7/500
167/167 - 1s - loss: 0.3268 - categorical_accuracy: 0.8750
Epoch 3/500
334/334 - 1s - loss: 0.5651 - categorical_accuracy: 0.8750
Epoch 6/500
167/167 - 1s - loss: 0.2235 - categorical_accuracy: 0.8931
Epoch 9/500
167/167 - 0s - loss: 0.2907 - categorical_accuracy: 0.8750
Epoch 2/500
667/667 - 3s - loss: 0.3416 - categorical_accuracy: 0.8750
(57,)
Model: "MLP"
_________________________________________________________________
Layer (type)                 Output Shape              Param #   
=================================================================
dense (Dense)                (None, 64)                3712      
_________________________________________________________________
dense_1 (Dense)              (None, 32)                2080      
_________________________________________________________________
dense_2 (Dense)              (None, 16)                528       
_________________________________________________________________
dense_3 (Dense)              (None, 8)                 136       
_________________________________________________________________
dense_4 (Dense)              (None, 4)                 36        
_________________________________________________________________
dense_5 (Dense)              (None, 2)                 10        
=================================================================
Total params: 6,502
Trainable params: 6,502
Non-trainable params: 0
_________________________________________________________________
Fit model on training data
Epoch 1/500
1334/1334 - 4s - loss: 0.2943 - categorical_accuracy: 0.8808
Epoch 3/500
167/167 - 1s - loss: 0.6250 - categorical_accuracy: 0.8750
Epoch 3/500
167/167 - 1s - loss: 0.2535 - categorical_accuracy: 0.8826
…
Epoch 2/500
667/667 - 2s - loss: 0.2389 - categorical_accuracy: 0.8906
Epoch 12/500
167/167 - 0s - loss: 0.2797 - categorical_accuracy: 0.8750
Epoch 3/500
334/334 - 1s - loss: 0.2600 - categorical_accuracy: 0.8862
Epoch 10/500
167/167 - 1s - loss: 0.3097 - categorical_accuracy: 0.8750
Epoch 5/500
167/167 - 1s - loss: 0.5744 - categorical_accuracy: 0.8750
(57,)
Model: "MLP"
_________________________________________________________________
Layer (type)                 Output Shape              Param #   
=================================================================
dense (Dense)                (None, 64)                3712      
_________________________________________________________________
dense_1 (Dense)              (None, 32)                2080      
_________________________________________________________________
dense_2 (Dense)              (None, 16)                528       
_________________________________________________________________
dense_3 (Dense)              (None, 8)                 136       
_________________________________________________________________
dense_4 (Dense)              (None, 4)                 36        
_________________________________________________________________
dense_5 (Dense)              (None, 2)                 10        
=================================================================
Total params: 6,502
Trainable params: 6,502
Non-trainable params: 0
_________________________________________________________________
Fit model on training data
Epoch 1/500
334/334 - 1s - loss: 0.5579 - categorical_accuracy: 0.8750
(57,)
Model: "MLP"
_________________________________________________________________
Layer (type)                 Output Shape              Param #   
=================================================================
dense (Dense)                (None, 64)                3712      
_________________________________________________________________
dense_1 (Dense)              (None, 32)                2080      
_________________________________________________________________
dense_2 (Dense)              (None, 16)                528       
_________________________________________________________________
dense_3 (Dense)              (None, 8)                 136       
_________________________________________________________________
dense_4 (Dense)              (None, 4)                 36        
_________________________________________________________________
dense_5 (Dense)              (None, 2)                 10        
=================================================================
Total params: 6,502
Trainable params: 6,502
Non-trainable params: 0
_________________________________________________________________
Fit model on training data
Epoch 1/500
1334/1334 - 6s - loss: 0.3132 - categorical_accuracy: 0.8771
Epoch 4/500
334/334 - 2s - loss: 0.2123 - categorical_accuracy: 0.9001
Epoch 8/500
167/167 - 1s - loss: 0.2074 - categorical_accuracy: 0.9018
(57,)
Model: "MLP"
_________________________________________________________________
Layer (type)                 Output Shape              Param #   
=================================================================
dense (Dense)                (None, 64)                3712      
_________________________________________________________________
dense_1 (Dense)              (None, 32)                2080      
_________________________________________________________________
dense_2 (Dense)              (None, 16)                528       
_________________________________________________________________
dense_3 (Dense)              (None, 8)                 136       
_________________________________________________________________
dense_4 (Dense)              (None, 4)                 36        
_________________________________________________________________
dense_5 (Dense)              (None, 2)                 10        
=================================================================
Total params: 6,502
Trainable params: 6,502
Non-trainable params: 0
_________________________________________________________________
Fit model on training data
Epoch 1/500
1334/1334 - 6s - loss: 0.3725 - categorical_accuracy: 0.8750
Epoch 13/500
167/167 - 0s - loss: 0.2756 - categorical_accuracy: 0.8750
Epoch 5/500
167/167 - 1s - loss: 0.2137 - categorical_accuracy: 0.9001
…
2022-11-17 20:12:03.147328: I tensorflow/compiler/xla/service/service.cc:176]   StreamExecutor device (0): Host, Default Version
2022-11-17 20:12:03.149544: I tensorflow/core/common_runtime/gpu/gpu_device.cc:1102] Device interconnect StreamExecutor with strength 1 edge matrix:
2022-11-17 20:12:03.149582: I tensorflow/core/common_runtime/gpu/gpu_device.cc:1108]      
(401,)
Model: "MLP"
_________________________________________________________________
Layer (type)                 Output Shape              Param #   
=================================================================
dense (Dense)                (None, 64)                25728     
_________________________________________________________________
dense_1 (Dense)              (None, 32)                2080      
_________________________________________________________________
dense_2 (Dense)              (None, 16)                528       
_________________________________________________________________
dense_3 (Dense)              (None, 8)                 136       
_________________________________________________________________
dense_4 (Dense)              (None, 4)                 36        
_________________________________________________________________
dense_5 (Dense)              (None, 2)                 10        
=================================================================
Total params: 28,518
Trainable params: 28,518
Non-trainable params: 0
_________________________________________________________________
Fit model on training data
Epoch 1/500
34/34 - 0s - loss: 0.6938 - categorical_accuracy: 0.4731
(401,)
Model: "MLP"
_________________________________________________________________
Layer (type)                 Output Shape              Param #   
=================================================================
dense (Dense)                (None, 64)                25728     
_________________________________________________________________
dense_1 (Dense)              (None, 32)                2080      
_________________________________________________________________
dense_2 (Dense)              (None, 16)                528       
_________________________________________________________________
dense_3 (Dense)              (None, 8)                 136       
_________________________________________________________________
dense_4 (Dense)              (None, 4)                 36        
_________________________________________________________________
dense_5 (Dense)              (None, 2)                 10        
=================================================================
Total params: 28,518
Trainable params: 28,518
Non-trainable params: 0
_________________________________________________________________
Fit model on training data
Epoch 1/500
68/68 - 0s - loss: 0.6920 - categorical_accuracy: 0.5361
(401,)
Model: "MLP"
_________________________________________________________________
Layer (type)                 Output Shape              Param #   
=================================================================
dense (Dense)                (None, 64)                25728     
_________________________________________________________________
dense_1 (Dense)              (None, 32)                2080      
_________________________________________________________________
dense_2 (Dense)              (None, 16)                528       
_________________________________________________________________
dense_3 (Dense)              (None, 8)                 136       
_________________________________________________________________
dense_4 (Dense)              (None, 4)                 36        
_________________________________________________________________
dense_5 (Dense)              (None, 2)                 10        
=================================================================
Total params: 28,518
Trainable params: 28,518
Non-trainable params: 0
_________________________________________________________________
Fit model on training data
Epoch 1/500
68/68 - 0s - loss: 0.6943 - categorical_accuracy: 0.4615
Epoch 2/500
34/34 - 0s - loss: 0.6928 - categorical_accuracy: 0.5380
(401,)
Model: "MLP"
_________________________________________________________________
Layer (type)                 Output Shape              Param #   
=================================================================
dense (Dense)                (None, 64)                25728     
_________________________________________________________________
dense_1 (Dense)              (None, 32)                2080      
_________________________________________________________________
dense_2 (Dense)              (None, 16)                528       
_________________________________________________________________
dense_3 (Dense)              (None, 8)                 136       
_________________________________________________________________
dense_4 (Dense)              (None, 4)                 36        
_________________________________________________________________
dense_5 (Dense)              (None, 2)                 10        
=================================================================
Total params: 28,518
Trainable params: 28,518
Non-trainable params: 0
_________________________________________________________________
Fit model on training data
Epoch 1/500
34/34 - 0s - loss: 0.6943 - categorical_accuracy: 0.4592
(401,)
Model: "MLP"
_________________________________________________________________
Layer (type)                 Output Shape              Param #   
=================================================================
dense (Dense)                (None, 64)                25728     
_________________________________________________________________
dense_1 (Dense)              (None, 32)                2080      
_________________________________________________________________
dense_2 (Dense)              (None, 16)                528       
_________________________________________________________________
dense_3 (Dense)              (None, 8)                 136       
_________________________________________________________________
dense_4 (Dense)              (None, 4)                 36        
_________________________________________________________________
dense_5 (Dense)              (None, 2)                 10        
=================================================================
Total params: 28,518
Trainable params: 28,518
Non-trainable params: 0
_________________________________________________________________
Fit model on training data
Epoch 1/500
68/68 - 0s - loss: 0.6905 - categorical_accuracy: 0.5498
(401,)
Model: "MLP"
_________________________________________________________________
Layer (type)                 Output Shape              Param #   
=================================================================
dense (Dense)                (None, 64)                25728     
_________________________________________________________________
dense_1 (Dense)              (None, 32)                2080      
_________________________________________________________________
dense_2 (Dense)              (None, 16)                528       
_________________________________________________________________
dense_3 (Dense)              (None, 8)                 136       
_________________________________________________________________
dense_4 (Dense)              (None, 4)                 36        
_________________________________________________________________
dense_5 (Dense)              (None, 2)                 10        
=================================================================
Total params: 28,518
Trainable params: 28,518
Non-trainable params: 0
_________________________________________________________________
Fit model on training data
Epoch 1/500
34/34 - 0s - loss: 0.6915 - categorical_accuracy: 0.5461
Epoch 2/500
34/34 - 0s - loss: 0.6942 - categorical_accuracy: 0.4611
Epoch 3/500
34/34 - 0s - loss: 0.6922 - categorical_accuracy: 0.5885
Epoch 2/500
68/68 - 0s - loss: 0.6843 - categorical_accuracy: 0.6207
Epoch 2/500
34/34 - 0s - loss: 0.6819 - categorical_accuracy: 0.6216
Epoch 2/500
68/68 - 0s - loss: 0.6940 - categorical_accuracy: 0.4639
Epoch 3/500
34/34 - 0s - loss: 0.6940 - categorical_accuracy: 0.4634
(401,)
Model: "MLP"
_________________________________________________________________
Layer (type)                 Output Shape              Param #   
=================================================================
dense (Dense)                (None, 64)                25728     
_________________________________________________________________
dense_1 (Dense)              (None, 32)                2080      
_________________________________________________________________
dense_2 (Dense)              (None, 16)                528       
_________________________________________________________________
dense_3 (Dense)              (None, 8)                 136       
_________________________________________________________________
dense_4 (Dense)              (None, 4)                 36        
_________________________________________________________________
dense_5 (Dense)              (None, 2)                 10        
=================================================================
Total params: 28,518
Trainable params: 28,518
Non-trainable params: 0
_________________________________________________________________
Fit model on training data
Epoch 1/500
135/135 - 0s - loss: 0.6851 - categorical_accuracy: 0.5839
Epoch 2/500
68/68 - 0s - loss: 0.6685 - categorical_accuracy: 0.6362
Epoch 4/500
34/34 - 0s - loss: 0.6916 - categorical_accuracy: 0.6026
Epoch 3/500
34/34 - 0s - loss: 0.6583 - categorical_accuracy: 0.6589
Epoch 4/500
34/34 - 0s - loss: 0.6939 - categorical_accuracy: 0.4745
(401,)
Model: "MLP"
_________________________________________________________________
Layer (type)                 Output Shape              Param #   
=================================================================
dense (Dense)                (None, 64)                25728     
_________________________________________________________________
dense_1 (Dense)              (None, 32)                2080      
_________________________________________________________________
dense_2 (Dense)              (None, 16)                528       
_________________________________________________________________
dense_3 (Dense)              (None, 8)                 136       
_________________________________________________________________
dense_4 (Dense)              (None, 4)                 36        
_________________________________________________________________
dense_5 (Dense)              (None, 2)                 10        
=================================================================
Total params: 28,518
Trainable params: 28,518
Non-trainable params: 0
_________________________________________________________________
Fit model on training data
Epoch 1/500
34/34 - 0s - loss: 0.6941 - categorical_accuracy: 0.4650
Epoch 4/500
34/34 - 0s - loss: 0.6340 - categorical_accuracy: 0.6877
Epoch 5/500
34/34 - 0s - loss: 0.6911 - categorical_accuracy: 0.6091
…
68/68 - 0s - loss: 0.6648 - categorical_accuracy: 0.6525
Epoch 3/500
68/68 - 0s - loss: 0.6938 - categorical_accuracy: 0.4729
Epoch 2/500
34/34 - 0s - loss: 0.6935 - categorical_accuracy: 0.4794
Epoch 3/500
68/68 - 0s - loss: 0.6348 - categorical_accuracy: 0.6777
Epoch 5/500
34/34 - 0s - loss: 0.6938 - categorical_accuracy: 0.4785
Epoch 5/500
34/34 - 0s - loss: 0.6185 - categorical_accuracy: 0.7000
(401,)
Model: "MLP"
_________________________________________________________________
Layer (type)                 Output Shape              Param #   
=================================================================
dense (Dense)                (None, 64)                25728     
_________________________________________________________________
dense_1 (Dense)              (None, 32)                2080      
_________________________________________________________________
dense_2 (Dense)              (None, 16)                528       
_________________________________________________________________
dense_3 (Dense)              (None, 8)                 136       
_________________________________________________________________
dense_4 (Dense)              (None, 4)                 36        
_________________________________________________________________
dense_5 (Dense)              (None, 2)                 10        
=================================================================
Total params: 28,518
Trainable params: 28,518
Non-trainable params: 0
_________________________________________________________________
Fit model on training data
Epoch 1/500
135/135 - 1s - loss: 0.6907 - categorical_accuracy: 0.5637
Epoch 6/500
34/34 - 0s - loss: 0.6904 - categorical_accuracy: 0.6247
(401,)
Model: "MLP"
_________________________________________________________________
Layer (type)                 Output Shape              Param #   
=================================================================
dense (Dense)                (None, 64)                25728     
_________________________________________________________________
dense_1 (Dense)              (None, 32)                2080      
_________________________________________________________________
dense_2 (Dense)              (None, 16)                528       
_________________________________________________________________
dense_3 (Dense)              (None, 8)                 136       
_________________________________________________________________
dense_4 (Dense)              (None, 4)                 36        
_________________________________________________________________
dense_5 (Dense)              (None, 2)                 10        
=================================================================
Total params: 28,518
Trainable params: 28,518
Non-trainable params: 0
_________________________________________________________________
Fit model on training data
Epoch 1/500
68/68 - 1s - loss: 0.6935 - categorical_accuracy: 0.4845
(401,)
Model: "MLP"
_________________________________________________________________
Layer (type)                 Output Shape              Param #   
=================================================================
dense (Dense)                (None, 64)                25728     
_________________________________________________________________
dense_1 (Dense)              (None, 32)                2080      
_________________________________________________________________
dense_2 (Dense)              (None, 16)                528       
_________________________________________________________________
dense_3 (Dense)              (None, 8)                 136       
_________________________________________________________________
dense_4 (Dense)              (None, 4)                 36        
_________________________________________________________________
dense_5 (Dense)              (None, 2)                 10        
=================================================================
Total params: 28,518
Trainable params: 28,518
Non-trainable params: 0
_________________________________________________________________
Fit model on training data
Epoch 1/500
135/135 - 1s - loss: 0.6937 - categorical_accuracy: 0.4736
(401,)
Model: "MLP"
_________________________________________________________________
Layer (type)                 Output Shape              Param #   
=================================================================
dense (Dense)                (None, 64)                25728     
_________________________________________________________________
dense_1 (Dense)              (None, 32)                2080      
_________________________________________________________________
dense_2 (Dense)              (None, 16)                528       
_________________________________________________________________
dense_3 (Dense)              (None, 8)                 136       
_________________________________________________________________
dense_4 (Dense)              (None, 4)                 36        
_________________________________________________________________
dense_5 (Dense)              (None, 2)                 10        
=================================================================
Total params: 28,518
Trainable params: 28,518
Non-trainable params: 0
_________________________________________________________________
Fit model on training data
Epoch 1/500
68/68 - 0s - loss: 0.6939 - categorical_accuracy: 0.4710
Epoch 3/500
34/34 - 0s - loss: 0.6931 - categorical_accuracy: 0.5137
Epoch 6/500
34/34 - 0s - loss: 0.6937 - categorical_accuracy: 0.4805
(401,)
Model: "MLP"
_________________________________________________________________
Layer (type)                 Output Shape              Param #   
=================================================================
dense (Dense)                (None, 64)                25728     
_________________________________________________________________
dense_1 (Dense)              (None, 32)                2080      
_________________________________________________________________
dense_2 (Dense)              (None, 16)                528       
_________________________________________________________________
dense_3 (Dense)              (None, 8)                 136       
_________________________________________________________________
dense_4 (Dense)              (None, 4)                 36        
_________________________________________________________________
dense_5 (Dense)              (None, 2)                 10        
=================================================================
Total params: 28,518
Trainable params: 28,518
Non-trainable params: 0
_________________________________________________________________
Fit model on training data
Epoch 1/500
34/34 - 0s - loss: 0.6926 - categorical_accuracy: 0.5320
Epoch 7/500
34/34 - 0s - loss: 0.6896 - categorical_accuracy: 0.6346
(401,)
Model: "MLP"
_________________________________________________________________
Layer (type)                 Output Shape              Param #   
=================================================================
dense (Dense)                (None, 64)                25728     
_________________________________________________________________
dense_1 (Dense)              (None, 32)                2080      
_________________________________________________________________
dense_2 (Dense)              (None, 16)                528       
_________________________________________________________________
dense_3 (Dense)              (None, 8)                 136       
_________________________________________________________________
dense_4 (Dense)              (None, 4)                 36        
_________________________________________________________________
dense_5 (Dense)              (None, 2)                 10        
=================================================================
Total params: 28,518
Trainable params: 28,518
Non-trainable params: 0
_________________________________________________________________
Fit model on training data
Epoch 1/500
135/135 - 1s - loss: 0.6932 - categorical_accuracy: 0.5025
Epoch 4/500
34/34 - 0s - loss: 0.6927 - categorical_accuracy: 0.5512
Epoch 6/500
34/34 - 0s - loss: 0.6036 - categorical_accuracy: 0.7134
Epoch 4/500
68/68 - 1s - loss: 0.6426 - categorical_accuracy: 0.6761
Epoch 4/500
68/68 - 0s - loss: 0.6937 - categorical_accuracy: 0.4782
(401,)
Model: "MLP"
_________________________________________________________________
Layer (type)                 Output Shape              Param #   
=================================================================
dense (Dense)                (None, 64)                25728     
_________________________________________________________________
dense_1 (Dense)              (None, 32)                2080      
_________________________________________________________________
dense_2 (Dense)              (None, 16)                528       
_________________________________________________________________
dense_3 (Dense)              (None, 8)                 136       
_________________________________________________________________
dense_4 (Dense)              (None, 4)                 36        
_________________________________________________________________
dense_5 (Dense)              (None, 2)                 10        
=================================================================
Total params: 28,518
Trainable params: 28,518
Non-trainable params: 0
_________________________________________________________________
Fit model on training data
Epoch 1/500
270/270 - 1s - loss: 0.6886 - categorical_accuracy: 0.5785
Epoch 5/500
34/34 - 0s - loss: 0.6923 - categorical_accuracy: 0.5778
Epoch 7/500
34/34 - 0s - loss: 0.6936 - categorical_accuracy: 0.4812
…
34/34 - 0s - loss: 0.6886 - categorical_accuracy: 0.6460
Epoch 2/500
135/135 - 1s - loss: 0.6435 - categorical_accuracy: 0.6717
Epoch 4/500
68/68 - 1s - loss: 0.6139 - categorical_accuracy: 0.6909
Epoch 7/500
34/34 - 0s - loss: 0.5923 - categorical_accuracy: 0.7224
Epoch 6/500
34/34 - 0s - loss: 0.6920 - categorical_accuracy: 0.5948
Epoch 2/500
68/68 - 1s - loss: 0.6923 - categorical_accuracy: 0.5734
(401,)
Model: "MLP"
_________________________________________________________________
Layer (type)                 Output Shape              Param #   
=================================================================
dense (Dense)                (None, 64)                25728     
_________________________________________________________________
dense_1 (Dense)              (None, 32)                2080      
_________________________________________________________________
dense_2 (Dense)              (None, 16)                528       
_________________________________________________________________
dense_3 (Dense)              (None, 8)                 136       
_________________________________________________________________
dense_4 (Dense)              (None, 4)                 36        
_________________________________________________________________
dense_5 (Dense)              (None, 2)                 10        
=================================================================
Total params: 28,518
Trainable params: 28,518
Non-trainable params: 0
_________________________________________________________________
Fit model on training data
Epoch 1/500
135/135 - 1s - loss: 0.6942 - categorical_accuracy: 0.4618
Epoch 2/500
68/68 - 1s - loss: 0.6931 - categorical_accuracy: 0.5116
Epoch 8/500
34/34 - 0s - loss: 0.6935 - categorical_accuracy: 0.4794
…
2022-11-17 20:17:40.008675: I tensorflow/compiler/xla/service/service.cc:176]   StreamExecutor device (0): Host, Default Version
2022-11-17 20:17:40.011359: I tensorflow/core/common_runtime/gpu/gpu_device.cc:1102] Device interconnect StreamExecutor with strength 1 edge matrix:
2022-11-17 20:17:40.011389: I tensorflow/core/common_runtime/gpu/gpu_device.cc:1108]      
(58,)
Model: "MLP"
_________________________________________________________________
Layer (type)                 Output Shape              Param #   
=================================================================
dense (Dense)                (None, 64)                3776      
_________________________________________________________________
dense_1 (Dense)              (None, 32)                2080      
_________________________________________________________________
dense_2 (Dense)              (None, 16)                528       
_________________________________________________________________
dense_3 (Dense)              (None, 8)                 136       
_________________________________________________________________
dense_4 (Dense)              (None, 4)                 36        
_________________________________________________________________
dense_5 (Dense)              (None, 2)                 10        
=================================================================
Total params: 6,566
Trainable params: 6,566
Non-trainable params: 0
_________________________________________________________________
Fit model on training data
Epoch 1/500
6/6 - 0s - loss: 0.7114 - categorical_accuracy: 0.2943
Epoch 2/500
6/6 - 0s - loss: 0.7086 - categorical_accuracy: 0.3086
Epoch 3/500
6/6 - 0s - loss: 0.7061 - categorical_accuracy: 0.3100
(58,)
Model: "MLP"
_________________________________________________________________
Layer (type)                 Output Shape              Param #   
=================================================================
dense (Dense)                (None, 64)                3776      
_________________________________________________________________
dense_1 (Dense)              (None, 32)                2080      
_________________________________________________________________
dense_2 (Dense)              (None, 16)                528       
_________________________________________________________________
dense_3 (Dense)              (None, 8)                 136       
_________________________________________________________________
dense_4 (Dense)              (None, 4)                 36        
_________________________________________________________________
dense_5 (Dense)              (None, 2)                 10        
=================================================================
Total params: 6,566
Trainable params: 6,566
Non-trainable params: 0
_________________________________________________________________
Fit model on training data
Epoch 1/500
22/22 - 0s - loss: 0.7004 - categorical_accuracy: 0.3914
Epoch 4/500
6/6 - 0s - loss: 0.7036 - categorical_accuracy: 0.3329
Epoch 5/500
6/6 - 0s - loss: 0.7017 - categorical_accuracy: 0.3586
Epoch 6/500
6/6 - 0s - loss: 0.7003 - categorical_accuracy: 0.3843
Epoch 7/500
6/6 - 0s - loss: 0.6991 - categorical_accuracy: 0.4157
Epoch 2/500
22/22 - 0s - loss: 0.6886 - categorical_accuracy: 0.6643
(58,)
Model: "MLP"
_________________________________________________________________
Layer (type)                 Output Shape              Param #   
=================================================================
dense (Dense)                (None, 64)                3776      
_________________________________________________________________
dense_1 (Dense)              (None, 32)                2080      
_________________________________________________________________
dense_2 (Dense)              (None, 16)                528       
_________________________________________________________________
dense_3 (Dense)              (None, 8)                 136       
_________________________________________________________________
dense_4 (Dense)              (None, 4)                 36        
_________________________________________________________________
dense_5 (Dense)              (None, 2)                 10        
=================================================================
Total params: 6,566
Trainable params: 6,566
Non-trainable params: 0
_________________________________________________________________
Fit model on training data
Epoch 1/500
11/11 - 0s - loss: 0.7122 - categorical_accuracy: 0.2843
Epoch 8/500
6/6 - 0s - loss: 0.6979 - categorical_accuracy: 0.4457
Epoch 2/500
11/11 - 0s - loss: 0.7117 - categorical_accuracy: 0.2843
Epoch 9/500
6/6 - 0s - loss: 0.6969 - categorical_accuracy: 0.4700
Epoch 10/500
6/6 - 0s - loss: 0.6958 - categorical_accuracy: 0.5000
Epoch 3/500
11/11 - 0s - loss: 0.7113 - categorical_accuracy: 0.2914
Epoch 3/500
22/22 - 0s - loss: 0.6827 - categorical_accuracy: 0.7114
Epoch 11/500
6/6 - 0s - loss: 0.6950 - categorical_accuracy: 0.5243
(58,)
Model: "MLP"
_________________________________________________________________
Layer (type)                 Output Shape              Param #   
=================================================================
dense (Dense)                (None, 64)                3776      
_________________________________________________________________
dense_1 (Dense)              (None, 32)                2080      
_________________________________________________________________
dense_2 (Dense)              (None, 16)                528       
_________________________________________________________________
dense_3 (Dense)              (None, 8)                 136       
_________________________________________________________________
dense_4 (Dense)              (None, 4)                 36        
_________________________________________________________________
dense_5 (Dense)              (None, 2)                 10        
=================================================================
Total params: 6,566
Trainable params: 6,566
Non-trainable params: 0
_________________________________________________________________
Fit model on training data
Epoch 1/500
6/6 - 0s - loss: 0.7043 - categorical_accuracy: 0.3386
Epoch 4/500
11/11 - 0s - loss: 0.7108 - categorical_accuracy: 0.2929
Epoch 12/500
6/6 - 0s - loss: 0.6942 - categorical_accuracy: 0.5500
…
6/6 - 0s - loss: 0.6802 - categorical_accuracy: 0.7143
Epoch 17/500
6/6 - 0s - loss: 0.6913 - categorical_accuracy: 0.6343
Epoch 7/500
6/6 - 0s - loss: 0.6778 - categorical_accuracy: 0.7143
Epoch 5/500
22/22 - 0s - loss: 0.6743 - categorical_accuracy: 0.7143
Epoch 18/500
6/6 - 0s - loss: 0.6908 - categorical_accuracy: 0.6400
Epoch 8/500
11/11 - 0s - loss: 0.7090 - categorical_accuracy: 0.3057
(58,)
Model: "MLP"
_________________________________________________________________
Layer (type)                 Output Shape              Param #   
=================================================================
dense (Dense)                (None, 64)                3776      
_________________________________________________________________
dense_1 (Dense)              (None, 32)                2080      
_________________________________________________________________
dense_2 (Dense)              (None, 16)                528       
_________________________________________________________________
dense_3 (Dense)              (None, 8)                 136       
_________________________________________________________________
dense_4 (Dense)              (None, 4)                 36        
_________________________________________________________________
dense_5 (Dense)              (None, 2)                 10        
=================================================================
Total params: 6,566
Trainable params: 6,566
Non-trainable params: 0
_________________________________________________________________
Fit model on training data
Epoch 1/500
11/11 - 0s - loss: 0.7000 - categorical_accuracy: 0.4143
Epoch 8/500
6/6 - 0s - loss: 0.6755 - categorical_accuracy: 0.7157
(58,)
Model: "MLP"
_________________________________________________________________
Layer (type)                 Output Shape              Param #   
=================================================================
dense (Dense)                (None, 64)                3776      
_________________________________________________________________
dense_1 (Dense)              (None, 32)                2080      
_________________________________________________________________
dense_2 (Dense)              (None, 16)                528       
_________________________________________________________________
dense_3 (Dense)              (None, 8)                 136       
_________________________________________________________________
dense_4 (Dense)              (None, 4)                 36        
_________________________________________________________________
dense_5 (Dense)              (None, 2)                 10        
=================================================================
Total params: 6,566
Trainable params: 6,566
Non-trainable params: 0
_________________________________________________________________
Fit model on training data
Epoch 1/500
22/22 - 0s - loss: 0.6946 - categorical_accuracy: 0.5200
Epoch 19/500
6/6 - 0s - loss: 0.6903 - categorical_accuracy: 0.6471
Epoch 9/500
6/6 - 0s - loss: 0.6732 - categorical_accuracy: 0.7157
…
22/22 - 0s - loss: 0.6546 - categorical_accuracy: 0.7143
Epoch 10/500
22/22 - 0s - loss: 0.6537 - categorical_accuracy: 0.7243
Epoch 23/500
6/6 - 0s - loss: 0.5445 - categorical_accuracy: 0.7829
Epoch 17/500
11/11 - 0s - loss: 0.7052 - categorical_accuracy: 0.3129
Epoch 32/500
6/6 - 0s - loss: 0.6851 - categorical_accuracy: 0.7371
Epoch 24/500
6/6 - 0s - loss: 0.5183 - categorical_accuracy: 0.7843
(58,)
Model: "MLP"
_________________________________________________________________
Layer (type)                 Output Shape              Param #   
=================================================================
dense (Dense)                (None, 64)                3776      
_________________________________________________________________
dense_1 (Dense)              (None, 32)                2080      
_________________________________________________________________
dense_2 (Dense)              (None, 16)                528       
_________________________________________________________________
dense_3 (Dense)              (None, 8)                 136       
_________________________________________________________________
dense_4 (Dense)              (None, 4)                 36        
_________________________________________________________________
dense_5 (Dense)              (None, 2)                 10        
=================================================================
Total params: 6,566
Trainable params: 6,566
Non-trainable params: 0
_________________________________________________________________
Fit model on training data
Epoch 1/500
22/22 - 0s - loss: 0.7105 - categorical_accuracy: 0.3043
Epoch 4/500
6/6 - 0s - loss: 0.7078 - categorical_accuracy: 0.3114
Epoch 25/500
6/6 - 0s - loss: 0.5017 - categorical_accuracy: 0.7814
Epoch 33/500
6/6 - 0s - loss: 0.6848 - categorical_accuracy: 0.7386
Epoch 9/500
11/11 - 0s - loss: 0.6535 - categorical_accuracy: 0.7143
Epoch 26/500
6/6 - 0s - loss: 0.4799 - categorical_accuracy: 0.7743
(58,)
Model: "MLP"
_________________________________________________________________
Layer (type)                 Output Shape              Param #   
=================================================================
dense (Dense)                (None, 64)                3776      
_________________________________________________________________
dense_1 (Dense)              (None, 32)                2080      
_________________________________________________________________
dense_2 (Dense)              (None, 16)                528       
_________________________________________________________________
dense_3 (Dense)              (None, 8)                 136       
_________________________________________________________________
dense_4 (Dense)              (None, 4)                 36        
_________________________________________________________________
dense_5 (Dense)              (None, 2)                 10        
=================================================================
Total params: 6,566
Trainable params: 6,566
Non-trainable params: 0
_________________________________________________________________
Fit model on training data
Epoch 1/500
44/44 - 0s - loss: 0.6880 - categorical_accuracy: 0.6171
Epoch 5/500
6/6 - 0s - loss: 0.7066 - categorical_accuracy: 0.3100
Epoch 18/500
11/11 - 0s - loss: 0.7048 - categorical_accuracy: 0.3143
Epoch 34/500
6/6 - 0s - loss: 0.6844 - categorical_accuracy: 0.7414
Epoch 27/500
6/6 - 0s - loss: 0.4599 - categorical_accuracy: 0.8143
Epoch 6/500
22/22 - 0s - loss: 0.6326 - categorical_accuracy: 0.7143
(58,)
Model: "MLP"
_________________________________________________________________
Layer (type)                 Output Shape              Param #   
=================================================================
dense (Dense)                (None, 64)                3776      
_________________________________________________________________
dense_1 (Dense)              (None, 32)                2080      
_________________________________________________________________
dense_2 (Dense)              (None, 16)                528       
_________________________________________________________________
dense_3 (Dense)              (None, 8)                 136       
_________________________________________________________________
dense_4 (Dense)              (None, 4)                 36        
_________________________________________________________________
dense_5 (Dense)              (None, 2)                 10        
=================================================================
Total params: 6,566
Trainable params: 6,566
Non-trainable params: 0
_________________________________________________________________
Fit model on training data
Epoch 1/500
22/22 - 0s - loss: 0.7120 - categorical_accuracy: 0.2857
Epoch 6/500
6/6 - 0s - loss: 0.7055 - categorical_accuracy: 0.3100
Epoch 11/500
22/22 - 0s - loss: 0.6491 - categorical_accuracy: 0.7300
Epoch 28/500
6/6 - 0s - loss: 0.4415 - categorical_accuracy: 0.8000
Epoch 35/500
6/6 - 0s - loss: 0.6841 - categorical_accuracy: 0.7471
(58,)
Model: "MLP"
_________________________________________________________________
Layer (type)                 Output Shape              Param #   
=================================================================
dense (Dense)                (None, 64)                3776      
_________________________________________________________________
dense_1 (Dense)              (None, 32)                2080      
_________________________________________________________________
dense_2 (Dense)              (None, 16)                528       
_________________________________________________________________
dense_3 (Dense)              (None, 8)                 136       
_________________________________________________________________
dense_4 (Dense)              (None, 4)                 36        
_________________________________________________________________
dense_5 (Dense)              (None, 2)                 10        
=================================================================
Total params: 6,566
Trainable params: 6,566
Non-trainable params: 0
_________________________________________________________________
Fit model on training data
Epoch 1/500
44/44 - 0s - loss: 0.7061 - categorical_accuracy: 0.3114
Epoch 10/500
11/11 - 0s - loss: 0.6411 - categorical_accuracy: 0.7157
Epoch 19/500
11/11 - 0s - loss: 0.7044 - categorical_accuracy: 0.3229
…
